models/03_pytorch_computer_vision_model_2.pth (torch, 35275 bytes, 10 tensors)

conv_block_1.0.weight f4 [10, 1, 3, 3]
00000000: fb94 473e 97c2 9b3e 4dbf b1be 2082 9fbc
00000010: 05e3 673e 4372 963d d29b 0dbf 2a3f 143e
00000020: b1ad fa3e 0f18 a7be 332b e33e edfe 32be
00000030: 66eb 8b3e 2e30 e63e 9f96 a7bd 55cd 80bd
00000040: 6fa3 c13e 4e6f 103d 18a3 b2be 34e1 10be
00000050: 2a14 0dbd cb9c 19bf e8cf 28bf 7b1d 453e
00000060: 176e 3cbf 2f0d 24bf 298f 9ebd a272 48bf
00000070: d383 89bf c285 0cbf bc5f 8d3e d9ed 41bf
00000080: 9218 853e e1cb af3e f595 6bbd 68a2 ee3e
00000090: 67b5 83bd 0c25 bd3e b57c 24be d18f 7bbe
000000a0: 645a b13e e45a 7ebe f757 9ebd ce27 b63e
000000b0: 839b c63c 43da 1abe 1048 393e fef6 5e3d
000000c0: e02c 273e 29af 52be fb37 a9be d4d7 04be
000000d0: 0942 84be d299 803e 50fb da3d 431f 053e
000000e0: 5bab 90bd 8bb1 dbbb 56cd 423e d052 8dbe
000000f0: f53d cbbd fffd 01bf 23a5 cabd 3e27 ffbd
00000100: 66ff 803d 71d2 3cbe ce4e ae3e cd20 4dbe
00000110: 942f 90be 9e2e 2cbe d4a2 cc3e b3e8 1f3e
00000120: 0b39 d53e 1db0 a3be 3c2b d1be 029c 9cbe
00000130: a766 cabe 3825 113d 184a bf3e 9220 df3e
00000140: f8f7 3cbe 3e8c 68be 32a1 333e cc85 0abe
00000150: e746 4d3e a952 a7bd 9103 413e 81a8 84be
00000160: 0798 2cbe 9921 cd3d
0.19490425 0.30421898 -0.34716263 -0.019471228 0.22645195 0.073460124 -0.5531589 0.1447722
0.4896064 -0.32635543 0.44368896 -0.17480059 0.27328032 0.44958633 -0.081830256 -0.06289164
0.37820002 0.0352624 -0.34890056 -0.14148408 -0.034443058 -0.6000487 -0.6594224 0.19249527
-0.73605484 -0.64082617 -0.077421494 -0.78299916 -1.0743355 -0.548916 0.27612102 -0.7575355
0.25995308 0.34335235 -0.057516057 0.4660828 -0.06431084 0.36942327 -0.16063197 -0.2456658
0.34639275 -0.2483936 -0.07731622 0.35577244 0.024244076 -0.15122323 0.18093896 0.05443477
0.16325712 -0.20574631 -0.33050522 -0.12972957 -0.2583163 0.25117356 0.10692465 0.13000207
-0.070639335 -0.0067045144 0.19023642 -0.27602243 -0.09923927 -0.5077819 -0.098947786 -0.12458657
0.062987134 -0.18439652 0.34044498 -0.20032044 -0.281613 -0.16814658 0.39967978 0.15616111
0.41645083 -0.319703 -0.40853298 -0.30587775 -0.39531443 0.035435885 0.37361217 0.43579537
-0.18453968 -0.22709748 0.1754196 -0.13527602 0.20046578 -0.08170063 0.18849017 -0.25909808
-0.16854869 0.10016174

conv_block_1.0.bias f4 [10]
00000000: 619b 5c39 9d18 ca3d 7930 723e d608 653e
00000010: fb75 5bbc 50be 55be ed35 003e aad2 8abd
00000020: 38ff adbd fb68 a6be
0.00021038718 0.09867976 0.23651303 0.22366652 -0.013394828 -0.2087338 0.12520571 -0.06778462
-0.08495945 -0.3250197

conv_block_1.2.weight f4 [10, 10, 3, 3]
00000000: 535c 7f3d f460 993d ae18 82bc 4a2e 04be
00000010: f167 24be 15f7 1cbe afd7 f9bd 158e 51be
00000020: b639 27be 73aa acbd 928e 1b3c f6c3 98bd
00000030: 144f 63be 64fc a8be dac3 80be 37e1 1bbe
00000040: 6f7c 52be 62bd 6bbe ddb3 c43c 807b a73d
00000050: 2833 213e b2b0 a43d 87fe 933e 782d 363e
00000060: 5ee9 83bd 53d3 8f3d 8c22 dc3d fb59 15be
00000070: 5f47 153b 3cf2 40be f11b 3c3d edec a83b
00000080: 149a cabd f554 503e c777 9f3d 21a7 803d
00000090: 33a9 2abe 1796 0bbe 82bd 48bc b9d8 bcbd
000000a0: 866f 7f3c 537a ecbd da9b a63d 9a5c cdbd
000000b0: d79e 0abd f0d0 b83c 28c8 603d b2c4 ad3d
000000c0: ee21 c53d 950c abbd 4fe5 e53c d5c6 38bd
000000d0: 10a9 4bbc f167 9fbd b8d3 3c3e ce6b e6bb
000000e0: 8559 df3b b8de 083e cbc0 aa3d 393e 70bd
000000f0: 0c36 633d eab8 87bb 4033 5abd 2ed6 b6bd
00000100: e528 4b3d 8590 14bc 5b85 26bd e6f4 b43d
00000110: 0108 973c a4f8 3abd e155 73bd cf96 e4bc
00000120: 6432 203d bba6 9ebc da41 36bd aafc 48bd
00000130: 39dd 9ebd ba44 823d 8f57 0a3e 4d8f c3bd
00000140: 7401 a0bb f709 5f3d 0d93 9c3c 7295 19bd
00000150: 9f57 613d c6e4 623d c477 213d d8bc 97bc
00000160: 79a4 e4bc daa3 383c 45e9 81bc ac70 babc
00000170: f5e5 853d d5a5 b03d 0436 453b 01cb 82bc
00000180: 9dc7 87bc ce81 2ebc b0c3 853c bc2b b23c
00000190: bfb5 94bd b950 3fbd 2bc4 ab3d cc54 823d
000001a0: 6b55 2bbc 4b0d d8bd 975f a3bd b297 ecbd
000001b0: 63ef 0fbd 59db 103d 01b3 813d 3e05 3c3d
000001c0: a13b bfbd 0930 8fbd fda1 a9bc 1344 d23d
000001d0: 1ce5 3e3c a140 18bc ce0d 423d ec58 1abd
000001e0: 40f1 85bd 7681 a03d 0e45 42bd 4db7 babc
000001f0: 20c5 e3bd b35a 943d dbb9 983d 3110 423d
00000200: 5b5f a3bd 5481 02be be1e bebd e84c 8c3d
00000210: 5428 e83c 0e88 a83d 1571 443d efb5 da3c
00000220: 1477 81ba 4c24 a4bd 32cc b8bd 2ec1 c9bd
00000230: bbcb 313d bd36 54bd d625 aebc 3557 78bd
00000240: 9615 eabc 5696 a0bd 69f1 84bd 2450 f73c
00000250: 3443 d6bc 71c1 943d 7e00 dabc c540 a1bd
00000260: ccf9 83bc 3cf9 4abd f354 f8bc 95f2 cebd
00000270: a0a9 783d 37c9 91bd 50fc 603d 7c42 403d
00000280: 1a7d 9f3d 098e a3bd ef2d b13d 3f03 3ebd
00000290: 92c6 2d3d b5d3 c03d 48a0 8ebc 5184 ac3a
000002a0: aca9 d1bc 66e7 b7bd 638e 5e3d 7d4e d6bd
000002b0: 6602 863d 6b87 a13d 1a2a cc3d 399f cbbc
000002c0: a05d b1bd e224 c23c 9983 6e3d 24dc d6bd
000002d0: c0d5 a4bc 753f 87bd 16f1 2cbb 203f 17bd
000002e0: 5e4c 21bc 35ee 34bc a6a5 9abd 1c69 053e
000002f0: a28c e13d b615 2dbc ee4d 43bc 1dd7 9abd
00000300: 2785 d1bd 6c42 b8bd 2796 4f3d 26b2 17bd
00000310: 4f5b ddbc ffd5 813d b699 e3bc 6af1 18bd
00000320: 31cd 863c 9834 87bc 1932 35bd b34b 80bd
00000330: 5abe a4bd cd2d ac3d 15ce 3cbd 7d22 cb3c
00000340: 0ec6 2abd d76f 253d 9c88 dc3d c324 c63d
00000350: 6409 6bbd 6e50 9d3d e427 0f3e 45e6 e63c
00000360: d9b2 8f3d 5c35 d13d 64d9 1ebd 6f55 f03c
00000370: 5dc3 7abd 88e5 b2bc 25ee a03d 7b51 883d
00000380: 07ef 4ebd 9b0f adbd 5f2b 93bd 73db d4bd
00000390: b056 a6bd 6b09 d4bc 2a5e 923d 7bd2 8f3c
000003a0: 8f46 a4bd 5118 adbd cfc2 5b3d ef53 91bd
000003b0: e44d 96bc 17ef 6e3d 07c8 3ebd 9121 c8bc
000003c0: 6a7d 13bc fa90 00bd 6ccb 66bd 7e57 c0bd
000003d0: 5b27 b0bd 38dd 79bd b3d4 c33d 1792 3dbd
000003e0: c5b6 81bd 06e2 da3c b8f2 e53c c05c 7c3d
000003f0: 8f65 933d 7a19 663d 2531 dabd d820 a03c
0.062343907 0.074891955 -0.015880909 -0.12908283 -0.16055275 -0.1532863 -0.121993415 -0.20464356
-0.16330609 -0.08430948 0.009494441 -0.074592516 -0.22198135 -0.3300506 -0.25149423 -0.15222631
-0.2055528 -0.23021463 0.024011547 0.08177853 0.15742171 0.080415145 0.28905126 0.17790782
-0.06440996 0.07022729 0.10748777 -0.14585106 0.0022778136 -0.18842405 0.045925085 0.005155197
-0.09892669 0.20344909 0.077865176 0.06281877 -0.16666107 -0.13631473 -0.012252213 -0.09221024
0.015590554 -0.11546769 0.08135195 -0.10027428 -0.033842888 0.022560567 0.054878384 0.08484782
0.09625612 -0.08352009 0.028063444 -0.045111496 -0.012430444 -0.07783497 0.1844014 -0.0070318943
0.0068160915 0.1336621 0.083375536 -0.05865309 0.055471465 -0.0041419165 -0.053271532 -0.0892757
0.049599547 -0.009067659 -0.04065452 0.08835773 0.018436434 -0.04564728 -0.059408072 -0.027903942
0.039110556 -0.019366613 -0.044496395 -0.049069084 -0.077570386 0.06360765 0.13509963 -0.09548817
-0.0048829857 0.054452863 0.019113088 -0.037496038 0.055015203 0.055393957 0.039420858 -0.018522665
-0.027910458 0.011269534 -0.015858302 -0.022758804 0.065380014 0.0862538 0.003009201 -0.01596594
-0.016574675 -0.010651065 0.016328663 0.02174937 -0.07261228 -0.046707842 0.083870254 0.0636383
-0.010457377 -0.105494104 -0.07977217 -0.11552371 -0.035140406 0.035365436 0.063329704 0.045903437
-0.09337545 -0.06991584 -0.020707125 0.102668904 0.011651304 -0.0092927525 0.047376446 -0.03768246
-0.065401554 0.07837193 -0.047429137 -0.022792483 -0.11121583 0.07243862 0.07457324 0.047378723
-0.07977172 -0.12744647 -0.09283207 0.06850606 0.028339542 0.08229075 0.047959406 0.02669808
-0.0009877407 -0.080147356 -0.09023322 -0.09851299 0.043407183 -0.051810015 -0.021258276 -0.060630042
-0.028574746 -0.07841174 -0.06491358 0.030189581 -0.026155092 0.072634585 -0.026611563 -0.07873682
-0.016110323 -0.049554095 -0.030313944 -0.101048626 0.060708642 -0.07118457 0.054928124 0.046938404
0.07787533 -0.079860754 0.08651339 -0.046389814 0.0424257 0.0941538 -0.017410412 0.0013161992
-0.025593601 -0.089796826 0.05433501 -0.10464189 0.06543426 0.07887157 0.09968968 -0.024856197
-0.08660436 0.023699228 0.05823097 -0.10491207 -0.020121455 -0.066039 -0.0026388816 -0.036925435
-0.0098448675 -0.011043121 -0.07551126 0.13028377 0.11013152 -0.010564258 -0.011920435 -0.07560561
-0.10230475 -0.08997044 0.050680306 -0.03703513 -0.027021078 0.06339645 -0.027783256 -0.037339605
0.016455265 -0.01650457 -0.04423723 -0.062644385 -0.08044119 0.08407173 -0.046094973 0.024796719
-0.041692786 0.040389862 0.10768244 0.096749805 -0.057382002 0.07681356 0.13980061 0.028185973
0.07016534 0.102152556 -0.03878154 0.029337613 -0.06122147 -0.021837965 0.078579225 0.06656166
-0.050520923 -0.08450242 -0.07186007 -0.10393419 -0.08122003 -0.025883397 0.071468666 0.01755642
-0.080212705 -0.084519036 0.05365258 -0.07096087 -0.018347688 0.058333483 -0.04657748 -0.024430068
-0.009002069 -0.03138826 -0.056346342 -0.09391688 -0.086012565 -0.061001986 0.095620535 -0.0462819
-0.06333689 0.026719104 0.028069839 0.06161189 0.07197105 0.05617664 -0.10653905 0.019546911

conv_block_1.2.bias f4 [10]
00000000: 3fc9 c33e 12c5 2bbd 3d64 11bd db2d f73e
00000010: bca6 d1bd 3953 313d 1237 583e c4a0 3ebd
00000020: 411a 873e 633a e33b
0.38239476 -0.041935988 -0.035495985 0.48277172 -0.1023688 0.043292258 0.21114758 -0.046540037
0.26387218 0.0069344505

conv_block_2.0.weight f4 [10, 10, 3, 3]
00000000: a797 11be 3938 6cbe 1b22 803d 9f2d 2cbe
00000010: e37c cabd 27c4 2f3e 2545 cdbd 6ecd cd3d
00000020: 31ee 2f3e 78c2 753d a1e2 cbbd 34c0 30bd
00000030: fd33 b0bd 3ab3 68bd 9bae 643d cfd4 c4bb
00000040: 7fd5 5b3d 60d4 6cbd a28d f93c f058 80bd
00000050: c438 853d 0a1e 27bd c5dc 10bd 129c c3bd
00000060: 2292 2d3c a848 d03d 35db 323d ce40 83be
00000070: e552 383e 163a 50be d8fc 11be 9347 973e
00000080: 1bc4 7c3c 9d79 7ebd a199 6ebe 6199 fcbd
00000090: 528d b83c 62ca 1b3d 9dea 883c 2d0a 0fbd
000000a0: 1fe4 f03d 14b5 b0bc 4a1a 7bbd 5e5b 3bbd
000000b0: 8e34 be3d aacf d6bc 63e5 0fbe a937 0bbe
000000c0: 3beb 0ebd 6617 d5bc 78b4 2bbe b98c e33c
000000d0: 7f90 8f3e d1e9 323e 4a0f 91be d0b6 813e
000000e0: fb3e 52be 440c 8e3d 3d0e 793e 70cc 063d
000000f0: 2170 ed3e 8b8a dfbd 5404 20be 3647 863d
00000100: 4f1d 943d cf4f 1abd 96b0 dd3d af12 0e3e
00000110: 5404 dfbd d171 233e c885 08be 7a2d 2abe
00000120: 42d4 67be bfab 413d 76b7 25be 43f8 cd3d
00000130: 977c 8c3e 6da0 7c3b 62bb dd3c 8e56 39be
00000140: 39c3 3abd 1600 d53e f4a4 393c 272f a13b
00000150: 5c85 8b3e f96c 293e e716 3dbd ca58 7cbd
00000160: f5ae 433e 3e09 9b3d 57d4 ef3c 6dd9 54be
00000170: 86ef c3bd 1aed 2d3e 0362 a2be b07d a6bd
00000180: 160d 9f3d 03c2 01bd 9300 cfbd 0c31 633d
00000190: 1a60 2ebd 9dc4 d7bd 6ca7 5fbd 69b5 ad3d
000001a0: e0fd 3ebc 1829 563c 4044 5ebd 6600 993d
000001b0: 995e d13d 7c49 ac3d 8e80 37bd b779 dfbd
000001c0: 98a2 c53a daa7 94bd e743 ae3d b592 c2bd
000001d0: 534b 483d 1e15 aebe a7fd a33e 7efd 133e
000001e0: cb86 e4bd c262 613f 04fa ba3e acde 52bf
000001f0: 0171 7abd f89c df3d e37f e63b 46e2 b23d
00000200: d2c9 b4bd 6f2a 24bd 0d31 013c a76b e3bc
00000210: 303e a93c f380 cfbd 8034 1dbd 50a9 ab3d
00000220: 784a debe b866 31be 1825 bb3e 288d 383e
00000230: 3eed 433c c154 84bd 701c 8f3e 4bda 753e
00000240: a761 28bf 6c90 3bbd 04bd 363e 4797 1cbf
00000250: 35dc 9e3e a830 003f 11f3 cfbe 0d5c a73c
00000260: 2213 923c 75d6 debc 4039 acbe 11f4 1dbe
00000270: 1ea3 a1be 4fae 77bd 6627 02bd 4ef0 a0be
00000280: 7b14 37be 6bc2 39be 6556 dfbe f663 75bd
00000290: f23d c73e 3d7b 6dbd 5c51 b43e 50e5 d93e
000002a0: 8eb0 c2be aff3 66bd ac96 b0bd 53b3 c03d
000002b0: 055f 483d 1399 d9bd 01d1 d43d 5342 563c
000002c0: 6b77 19be 48bf 57be 2227 013c c300 023e
000002d0: ba60 a6bc 74ef d53d 347a 8e3d f241 5fbd
000002e0: f36d a8bd 4197 d2bd 2755 2abd 7e65 38bc
000002f0: f688 9ebc 810f d3bc 9640 5dbd 4ee9 0abd
00000300: ca5c 1fbd 2741 d13d e03f 21bd 229f 9abd
00000310: 458b 313d d7a0 75bb b388 a53d 42cf 953d
00000320: ce93 de3d c26e 96bd 3247 9d3d 0bd9 bf3d
00000330: caa2 3abd 6c59 d43d dd9b ad3d 1efb 27bd
00000340: 6ca6 ac3c afe4 b0bd a858 10be c4f3 223d
00000350: 2c2a 563d 9b46 02be 7ab3 603d e3cd 8ebd
00000360: ad86 a93d aceb cc3d 778b 823c 944f 89bd
00000370: c848 713d 38cc 5b3c d81c 593c 9324 e03c
00000380: 04ae 853d a3f2 3abd 2d5c 19bd be93 033b
00000390: f780 91bb 48e4 6b3d 375b 63bd b534 93bc
000003a0: d774 9f3c 6476 ab3b af40 643d 0c8f 7bbc
000003b0: 34fb e6bd 4e7b eebc 8893 9ebd 17c9 c83c
000003c0: 82a6 8ebd 3f7f 00be 142e 263d a8f2 5abc
000003d0: 0a38 47bd 223f b63d fc79 d3bc fa78 5f3d
000003e0: 59ee 023d 9fb6 f1bd 43a4 f03b bd3a d43d
000003f0: 2a20 ecbd bc1d c8bd aab0 973d 7144 323d
-0.14218007 -0.23068322 0.06256505 -0.16814278 -0.098871015 0.1716467 -0.10022954 0.10048948
0.17180707 0.059999913 -0.099553354 -0.04315205 -0.08603666 -0.05681155 0.05583058 -0.006006814
0.053670403 -0.057819724 0.030463044 -0.062669635 0.06504968 -0.04080013 -0.035366792 -0.095512524
0.010593923 0.10170108 0.043666083 -0.2563538 0.18000372 -0.20334658 -0.14256608 0.29546794
0.015427615 -0.0621277 -0.23300792 -0.12333942 0.022528324 0.038034804 0.016713435 -0.034921814
0.11762261 -0.02157072 -0.061304368 -0.04574143 0.09287368 -0.026222069 -0.14052348 -0.13595451
-0.034892302 -0.026012134 -0.16768062 0.027777063 0.2803993 0.17472006 -0.28331977 0.25334787
-0.20531838 0.06935933 0.24321838 0.03290981 0.4637461 -0.10915097 -0.15626651 0.06556551
0.07232153 -0.037673768 0.10824697 0.13874315 -0.108894974 0.15961386 -0.13332283 -0.1661891
-0.22639564 0.04728293 -0.16183266 0.10057118 0.27438805 0.003854777 0.02706689 -0.18099424
-0.045596335 0.41601628 0.011330832 0.004918951 0.27250183 0.16545476 -0.04616442 -0.061608113
0.1910971 0.07570122 0.029276056 -0.20786066 -0.0956717 0.16984978 -0.31715402 -0.08129442
0.07766168 -0.031679165 -0.101075314 0.055466697 -0.04257212 -0.10535548 -0.054603025 0.08481867
-0.011657208 0.013071321 -0.054264307 0.07470779 0.10223121 0.084124535 -0.044800334 -0.10911887
0.0015078364 -0.07258578 0.08509045 -0.095006384 0.04889996 -0.34000486 0.3202946 0.14452168
-0.11158522 0.8804132 0.36518872 -0.8237102 -0.061142925 0.10918611 0.0070342883 0.087345645
-0.08827557 -0.04007953 0.00788523 -0.027761294 0.020659536 -0.10132017 -0.038380146 0.08381903
-0.4341619 -0.1732434 0.36551738 0.18022597 0.011958418 -0.06461478 0.27951384 0.24009053
-0.65774006 -0.04579203 0.17845541 -0.6116833 0.3102738 0.50074244 -0.40615132 0.020429635
0.017831389 -0.02720187 -0.33637428 -0.15425135 -0.3156976 -0.060468968 -0.031775855 -0.31433338
-0.17878906 -0.18140571 -0.436206 -0.059909783 0.38914448 -0.057978857 0.35218322 0.42557764
-0.38025326 -0.05638474 -0.086224884 0.094092034 0.048918743 -0.106249 0.10391427 0.013077336
-0.1498696 -0.21069062 0.007882865 0.12695603 -0.020309795 0.10446063 0.06956902 -0.05450625
-0.08224096 -0.10282756 -0.041585114 -0.011254666 -0.019352417 -0.025764229 -0.054016672 -0.033913903
-0.03890685 0.10217505 -0.039367557 -0.075498834 0.04334571 -0.0037479901 0.08082714 0.07314922
0.10868035 -0.07345344 0.07679595 0.093675695 -0.045565404 0.10368618 0.08476994 -0.04101097
0.02107545 -0.08637368 -0.1409632 0.039783254 0.052286312 -0.12722246 0.054858662 -0.069728635
0.082776405 0.10005888 0.015935643 -0.067046314 0.0589073 0.013415389 0.013251506 0.02736119
0.065273315 -0.045641553 -0.03744142 0.0020077075 -0.0044404226 0.057590753 -0.05550691 -0.017969469
0.019464893 0.005232619 0.05572575 -0.015353929 -0.11278382 -0.02911153 -0.07742983 0.02450995
-0.069653526 -0.1254854 0.040571287 -0.013363518 -0.048637427 0.088987604 -0.025815003 0.05455873
0.031965587 -0.1180241 0.0073438003 0.10362766 -0.11529572 -0.097712964 0.07406743 0.043522302

conv_block_2.0.bias f4 [10]
00000000: 4a93 c4bd 3778 3e3e 82b0 1dbd 87f4 3dbe
00000010: 0238 943c f621 5c3d 5a58 a53e e6e4 fe3e
00000020: b91b 433f 5224 89bd
-0.09598406 0.18600546 -0.03849841 -0.18550311 0.018093113 0.053743325 0.3229397 0.4978401
0.76214176 -0.06696381

conv_block_2.2.weight f4 [10, 10, 3, 3]
00000000: 99f7 5abd 548d 80be be6f 37be a2b4 8a3d
00000010: c75a 13be dc1c d23b 4e0e 4d3c d0e8 bebd
00000020: da49 6c3e b00a 00be e999 75be b373 8dbd
00000030: 42ea ba3c cdf6 f6bc 930e 08bf 9179 7a3e
00000040: 604f 273e 8d31 39bf 33aa 24bb 5f7b cabc
00000050: d92f ef3d 8608 febd 6c9f 7f3d 91c0 eb3c
00000060: b740 f33b da17 3c3d 98bb cabd 1276 02be
00000070: b160 2b3e 9dc4 8bbd 1561 8ebd caf7 f83d
00000080: bfc6 c5bd 3efd e4bc 87c4 a43d f40a 1cbd
00000090: e7c0 15bd 462d b03c 4a67 c93d 5d3a 2cbc
000000a0: 09dd d9bc e589 173c 6a18 6ebd 9959 6fbd
000000b0: fcbf e1bd b8ae c0bd 045a 1dbe 721b b03d
000000c0: 9485 1f3c f8dc 6fbd 19d9 bf3c d706 f1bb
000000d0: a9d3 8abd 2e5e 03bd 0c49 febe e758 d4bd
000000e0: 3231 f9be 22cb 9bbe 0a0b c53d 90d9 e23e
000000f0: 80cf 78be aa38 203d 5cd1 d73e 783e a43e
00000100: 9787 013e e97f 8cbe b5eb 00bd 2e88 8ebc
00000110: dfa0 303d ef12 e03d 21c8 6abe ef07 d83d
00000120: 7f47 ae3e 356e cfbd 294e 1f3e 8f17 073d
00000130: b0a3 f6be 118d 183e 1080 a6be df36 e4be
00000140: 2b62 e9bd 019f 61bd 8b3b 153d 7481 53bd
00000150: 1c9f e33c c028 94bd f8c2 e1bc ed49 263d
00000160: eee3 09bc 480b 30bd 9b18 a9bd 6ed6 273e
00000170: dd1c dfbd c250 87be 19d4 b93d 2bc9 47be
00000180: 24a9 9b3d c2cb 543e 0d6b 31bc e94f 203e
00000190: bf8e 473c f549 b3bd d6e6 fe3b 1ff7 42be
000001a0: 818d 913e fac6 56be 8146 12bf 3bb2 d83d
000001b0: 2a1d 7bbc 982b d2bb 4d14 a73d 5987 3f3d
000001c0: c50e a6bd 63e5 0cbd 80a7 68bd 0478 c3bd
000001d0: ab20 d7bb 2c88 3ebd 736e a13d a709 fa3d
000001e0: 8fde b53d a97a 9fbd 589a 69bd 55ce 163e
000001f0: f52b 263d e26e 773b 2270 2d3d 813e 413c
00000200: 783c ce3c 100f 293d 2f3a 8fbd 6be8 413d
00000210: f9e2 7d3d 01f4 ebbd 78fe 24bd 0191 debd
00000220: 5a10 63bd c47a 643d ce21 09be 09a6 03be
00000230: b9f7 7b3d e2ae c33c 3abf b83d 7117 e13d
00000240: b1b7 a6be 5e00 1f3e 464d 6b3e 2aaa abbe
00000250: ff49 663e 0f4e 18be 2833 03bd 1f72 f33e
00000260: ffb5 92be 7d1a f73d c7c0 0ebe e2e5 0e3e
00000270: 7408 a43d 50ff eabe e5a1 8bbe 79de 683e
00000280: 0efc d8be b882 913e fd0c a0bc 8733 bfbd
00000290: b2ab 433c 9b14 1b3e 6b09 c9bc 7c68 0ebe
000002a0: f95a c5bc 04e1 cd3d 1b66 7fbc bc3a aebc
000002b0: 75b3 1f3d d0e8 ad3d db5b 5dbd 7cf2 4abd
000002c0: 4c9b 633d 2638 a63b de54 1cbc 6a5f b8bd
000002d0: ad9e 793e 6083 623d 8914 e2bd f447 74bd
000002e0: e3b0 a63e 21ff 8abe 33d0 e7bc 8334 c23e
000002f0: d138 913d ee86 04bf 1503 b73d ae99 edbe
00000300: acd1 0ebf 1362 ff3e 0cf3 cbbd 51ef 98be
00000310: a691 b93d dc07 8d3e 1455 bdbd 034e 8bbd
00000320: 9847 adbb 3587 39bd 54a2 a93c 9f80 693d
00000330: d8f9 26bd 3cd6 83bd 279d ef3c 2298 dcbd
00000340: c180 a13d 2c05 153d 7dce ac3c a6a4 5f3d
00000350: 2d68 dfbd 8e72 a33d 6650 0d3d 816f d7bb
00000360: 0da8 7a3d 8f90 e7bd a113 cdbc cf52 dcbc
00000370: f91e 3a3d ee63 58bd 38f2 d33d 49e7 e63c
00000380: b163 cf3d 6ce3 b53d 900f 37bd 3b0c 10be
00000390: ead7 633e ab0d a93c 90e5 7fbb 3a9b be3d
000003a0: 3181 b53c c746 07be 2c61 cabe 364f 94be
000003b0: 0cbd b93e 44be 44be 26c4 cdbd 9e16 e2bd
000003c0: b744 ccbd 4d84 f63d 21a7 2b3d 626d f0bd
000003d0: c655 183f f50f 3a3d d54a a9be 2b0e 2b3e
000003e0: bdcd 95bd 4f48 793a 6b2c a1be 23b1 21be
000003f0: 8b42 1bbe 730e 52be 09c7 853d 517c 8bbc
-0.053458784 -0.25107825 -0.1791372 0.06772734 -0.14390098 0.0064121317 0.012515618 -0.09321749
0.23075047 -0.12504077 -0.23984493 -0.069068335 0.022816781 -0.03014698 -0.5314724 0.24460436
0.16338873 -0.72341233 -0.002512586 -0.024717031 0.11679048 -0.124039695 0.062407896 0.028778346
0.007423486 0.045921184 -0.09899062 -0.12740353 0.16736104 -0.068246104 -0.06952111 0.12156637
-0.096570484 -0.027952787 0.08045297 -0.038096383 -0.03656092 0.021505963 0.09834154 -0.010511962
-0.026594656 0.009249185 -0.05812875 -0.058435056 -0.11022946 -0.09408325 -0.1536637 0.08598985
0.009736437 -0.05856034 0.02341895 -0.0073555517 -0.06778652 -0.03207224 -0.49665105 -0.10368519
-0.48670346 -0.30428416 0.09621246 0.44306612 -0.24297905 0.03911654 0.42151916 0.3207891
0.1264938 -0.27441338 -0.031474788 -0.01739892 0.04312217 0.10941111 -0.22927906 0.10548388
0.34038922 -0.10128442 0.1555716 0.03298145 -0.4817176 0.14897563 -0.3251958 -0.44573113
-0.11395677 -0.05508328 0.036433738 -0.051637128 0.02778583 -0.07234335 -0.027558789 0.040597845
-0.008416159 -0.04297951 -0.08256646 0.16390392 -0.10894177 -0.264288 0.090736575 -0.19510333
0.076006204 0.20780852 -0.010828746 0.15655483 0.012180029 -0.087543406 0.0077789826 -0.19039582
0.2842827 -0.20974341 -0.5713883 0.1058087 -0.0153267775 -0.006413888 0.08158169 0.046759937
-0.08108286 -0.034398448 -0.056800365 -0.095443755 -0.0065651736 -0.046516582 0.07882395 0.12208872
0.0888034 -0.077870674 -0.05703196 0.14727147 0.040569264 0.00377553 0.042343266 0.011794687
0.025175318 0.04127413 -0.069935195 0.04734079 0.061984036 -0.115211494 -0.040281743 -0.10867501
-0.055435516 0.05578114 -0.13391802 -0.12856306 0.061515544 0.023887102 0.090208486 0.10990799
-0.3256202 0.15527484 0.22978696 -0.33528262 0.22489165 -0.14873527 -0.03203121 0.47548005
-0.28654477 0.12065599 -0.13940726 0.13954881 0.08009425 -0.45897913 -0.27271953 0.22741117
-0.42379802 0.28420043 -0.019537443 -0.09336 0.011942791 0.15144579 -0.024540624 -0.13907045
-0.02409123 0.10052684 -0.015588309 -0.021268241 0.038989503 0.08491671 -0.05404268 -0.049547657
0.055568025 0.0050726114 -0.009541718 -0.09002574 0.24376936 0.05530107 -0.11039073 -0.059638932
0.3255683 -0.27147773 -0.02829752 0.37930688 0.07090915 -0.51768386 0.08936135 -0.4640631
-0.55788684 0.49879512 -0.09958467 -0.29870084 0.09060983 0.2754506 -0.09244743 -0.06801989
-0.0052880757 -0.04529496 0.020707287 0.05700743 -0.040765613 -0.06437346 0.02924974 -0.107712045
0.07885886 0.036381885 0.021094555 0.05460038 -0.10908542 0.07980834 0.034500502 -0.0065745716
0.061195422 -0.11306869 -0.025033774 -0.026894955 0.045439694 -0.052829675 0.10348934 0.028186457
0.101264365 0.08881268 -0.044692576 -0.14067166 0.22250333 0.0206364 -0.0039046742 0.09306951
0.02215633 -0.13210593 -0.3952726 -0.28966683 0.36277044 -0.19213206 -0.10047178 -0.1103947
-0.09974044 0.12036953 0.041907433 -0.11739613 0.5950588 0.045425374 -0.33064905 0.16704623
-0.07314632 0.0009509371 -0.314792 -0.15790229 -0.15162103 -0.20513324 0.065321036 -0.017027052

conv_block_2.2.bias f4 [10]
00000000: 987a 973e 1137 babd 77f0 4d3e 37c7 5b3d
00000010: 8f49 8dbe c8fc 803e f687 013d 0fc8 8cbd
00000020: ffc4 91bd fae5 d6bd
0.2958572 -0.09092534 0.20111261 0.053656783 -0.27595183 0.25192857 0.031623803 -0.06874096
-0.07117652 -0.10493083

classifier.1.weight f4 [10, 490]
00000000: 4cd1 c3ba 25cb 0ebe b0fe f03d 9027 03be
00000010: af34 203e 4a8d 203d ef7e 7b3d bc92 243d
00000020: 240a 5d3e 0c65 013d 1bdd 6cbe a4c9 223d
00000030: 366e b03d 871b d03d d276 653d 4ad5 033e
00000040: 59a8 c33d 992d b1bd d30c 743d 03f3 02bc
00000050: 20e4 f1bd 7d2a 093c 8823 b93d c9b1 f13c
00000060: 11b0 793c e261 393e 0375 c93d aaf2 c6bd
00000070: e9c3 84bd 05ec 13bd 4365 cdbd 27bc 8fbd
00000080: 3acf 243e 3e61 1cbe cde0 27bc 92af 4a3d
00000090: c205 02be f881 42bd f2f3 c4bd a02a a5bd
000000a0: 1806 0b3e 58ae 04bc cd85 ca3d f077 20be
000000b0: cf04 33be 54ec 793a 322e 463c fbe7 a23e
000000c0: d09b d5bc 7790 123d 3935 763d f553 c5bd
000000d0: ec1c 1d3c ae40 b2bd 04b6 323e 18ad 223e
000000e0: 24a9 f0bb f4b9 0cbe 77a4 abbc 158e 753d
000000f0: 7700 59be 7a07 1d3c 03cd 83bc f1f1 26bb
00000100: 7eda 273e 5ece f3bc cbc3 e73d edd5 473d
00000110: 3dd0 a03e db8c afbc 2858 8a3c a4bb 703d
00000120: 5a4e a1bd 505e 9b3d 635d 8e3d 56d1 f23d
00000130: c7f4 06bd 1ea4 633d 93ba 4dbc 58f7 85bd
00000140: e3d4 a0bd 2855 edbc 0540 edbc 4367 b2bd
00000150: 1c8b 80bd 8bac 03bd c683 5d3c 51fc 51be
00000160: a106 ddbd bdce 16be ac4a 60bd cef8 05bd
00000170: b65f 59bb fac0 7e3e ea70 0dbe 1e69 f8bd
00000180: e0c7 e03c 3ac8 95bc f538 bb3d 8b14 8c3d
00000190: 7084 933d 3c7e 03bd 7b89 c2bc 828e 8c3d
000001a0: 3e49 0d3c 4fed 583e 4449 513d 6625 bbbd
000001b0: 7ecb 8f3d 5ba1 ddbc a2d0 f63d c7f4 1b3d
000001c0: b36a 043d 73a6 f23d b3de 6f3e a233 c6bc
000001d0: 11f4 a43c e79e 39bd 38dc 16be 8dbb a2bc
000001e0: bc57 b8bd 486c 4c3e ce6a f8bd 0de7 01be
000001f0: b722 313e d42d 8fbd 262d 85be 78fd 983b
00000200: 405d 303d 3618 9dbd c1e3 e5bd 6ffe ec3d
00000210: af8c e43d 76bd edbd d637 be3d f04d cc3d
00000220: aea3 f1bd 41b5 1cbe 5c26 b7bd 16a1 393d
00000230: 55cf a73c cd98 183d 306e b63c 4780 9fbd
00000240: f441 62bd 4e78 46be 7d60 22be 98a3 923e
00000250: 56d4 b8bd dcc9 00be 9743 ea3a 6144 983d
00000260: 4578 763d e9fe 8fbb 8d48 dcbd 1d82 c2bd
00000270: 7a7e 3cbe 9f45 07bd 5133 743d 2408 f7bd
00000280: 7d5a debd 36d9 debd a52e 55bb 9548 febd
00000290: 34c7 7a3d ed3f 7bbd c81d fabb 506c 693d
000002a0: 9a03 e33d 7896 bc3d 5226 07bd 4cbd 5239
000002b0: 20ac 293d de85 aa3d 71a4 183e 858f eb3c
000002c0: 6492 533e 2f32 4abd fcb1 fabd fad7 63bd
000002d0: 814e 39bd 53fb 253e 848b 9fbd 12f7 603e
000002e0: 28da a4bd f580 19be d3a3 10bd eebf e4bc
000002f0: 70b0 d03d 354a 03bb e4c4 fbbc 2fa0 08be
00000300: 7f30 34bd d6af 0bbe fb97 8fbd 400f 163d
00000310: a6a6 663c 6565 23bc 5098 93bc 331f 033d
00000320: bc45 193d d632 323c bb44 e93c 62a8 c2bb
00000330: 33fc a0bc 1d59 073e 7518 213e 9a13 783d
00000340: a47c 973c 2b22 8e3b f023 5c3d 0d41 493e
00000350: 5777 d23c e3db 013d 4400 2a3c 916d 733e
00000360: cdb7 b63d 3e41 99bc f0a8 2bbd 62e4 a5bd
00000370: 9c7b 70bc 1200 f23c e261 2a3e 7cfa 8dbd
00000380: f93f 853c 7939 a63c bdf0 87bc d4b9 9fba
00000390: 5462 8fbd 517c 9dbb ad9b 62bd 3708 c3bc
000003a0: 77d7 a3bb 3c73 283d 9eeb e2bc db90 563d
000003b0: 3913 a53d 10a3 c3bd a08b 493c e30d 37bb
000003c0: 6c6f f93c 640a acbd 9f78 3ebd 26a4 ed3b
000003d0: 41e2 b1ba e0c4 123b 4952 203d 8d72 473d
000003e0: b4bf f33d 2965 3e3d 116b ad3e adb4 923d
000003f0: 6dd0 593d e3b1 adbc ba60 1f3e ea0e 463d
-0.0014939695 -0.13944681 0.11767328 -0.1280806 0.15645097 0.039197244 0.06140035 0.040179
0.215859 0.031590506 -0.2313122 0.03974308 0.08614771 0.101615004 0.05602152 0.12874332
0.09553594 -0.08651275 0.059582543 -0.007992509 -0.118110895 0.008371946 0.0903998 0.02950372
0.015239731 0.18103746 0.09836771 -0.09714253 -0.064826794 -0.036113758 -0.1002908 -0.07018309
0.16094676 -0.1527147 -0.010246468 0.049483843 -0.12697509 -0.04748723 -0.096168414 -0.08064771
0.13576543 -0.008098207 0.09888802 -0.15670753 -0.17482303 0.0009533812 0.012095975 0.31817612
-0.026075274 0.035782304 0.06010935 -0.09635154 0.009589415 -0.08703743 0.17452246 0.15886343
-0.007344382 -0.1374281 -0.020952446 0.059949953 -0.21191584 0.009584302 -0.016088968 -0.0025473798
0.16391942 -0.02976149 0.113166414 0.048788 0.31408873 -0.02142947 0.01688774 0.058772698
-0.078762725 0.07586348 0.06951406 0.11856334 -0.03294828 0.055576436 -0.01255669 -0.06541318
-0.07853105 -0.02897127 -0.028961191 -0.08711102 -0.06276533 -0.03214697 0.013520187 -0.20506407
-0.1079228 -0.14727302 -0.054758713 -0.03270798 -0.003316862 0.24878302 -0.13812605 -0.121294245
0.027439058 -0.018283952 0.09141723 0.06839856 0.07202995 -0.03210281 -0.023747196 0.06863119
0.008623419 0.21184276 0.051095262 -0.091379926 0.07021235 -0.02705448 0.12051512 0.038075235
0.03232832 0.11848154 0.23424797 -0.024194542 0.020135911 -0.045317557 -0.14732444 -0.019864822
-0.09001109 0.19963181 -0.121297464 -0.12685795 0.17298399 -0.06991163 -0.26011008 0.0046688877
0.04305768 -0.076706335 -0.11225081 0.11571967 0.11159646 -0.116084024 0.092879936 0.09975803
-0.117987975 -0.15303518 -0.08942863 0.04531964 0.020484606 0.037255097 0.022269338 -0.07788139
-0.05523868 -0.1938183 -0.1585712 0.28640437 -0.09024875 -0.12577003 0.0017872927 0.07434917
0.06017329 -0.0043944013 -0.107560255 -0.094974734 -0.18407622 -0.03302538 0.05961925 -0.120620996
-0.10857103 -0.108812734 -0.0032529023 -0.12416188 0.06122513 -0.06134026 -0.0076329447 0.05698806
0.11084671 0.09208387 -0.03299553 0.00020097679 0.041423917 0.083263144 0.1490648 0.028754959
0.20661312 -0.049364265 -0.12240979 -0.055625893 -0.045240883 0.16209154 -0.07790282 0.2196925
-0.080494225 -0.149906 -0.035312485 -0.02792355 0.10189903 -0.0020033245 -0.030733533 -0.13342355
-0.043991562 -0.13641295 -0.0701141 0.036635637 0.014077818 -0.009972905 -0.018016964 0.032012176
0.03742002 0.010876378 0.028475156 -0.005940483 -0.019651508 0.13217588 0.15731986 0.06056557
0.01849205 0.0043375692 0.05374521 0.19653721 0.025691671 0.03170384 0.01037604 0.23772265
0.08921776 -0.018707868 -0.04190916 -0.08100201 -0.014677908 0.02954105 0.16638902 -0.06932542
0.016265856 0.020291077 -0.016594285 -0.0012186118 -0.070011765 -0.0048060794 -0.055324245 -0.023807628
-0.0050000506 0.04112552 -0.027700242 0.05238424 0.08060307 -0.09552586 0.012301356 -0.002793186
0.030448638 -0.08400419 -0.046501752 0.007252234 -0.0013571457 0.0022395179 0.039140973 0.04869323
0.11901799 0.046483193 0.33870748 0.071633674 0.053177286 -0.021202987 0.15564242 0.048354067

classifier.1.bias f4 [10]
00000000: cdef c13d f024 05be 81b0 e53e 8e99 c1bd
00000010: dce4 c9be 63f2 29be 5928 4f3e 148a cbbc
00000020: d764 103e e0f9 e8bd
0.094695665 -0.13002372 0.44861224 -0.09453116 -0.39432418 -0.1659637 0.20230235 -0.024846114
0.14100967 -0.11375785
